NIU App/NIU App/model/model-meta.tflite (tflite, 47210 bytes, 4 tensors)

sequential/conv2d/BiasAdd/ReadVariableOp f4 [32]
000000 84 a4 29 bd 02 a4 b4 bc 47 73 fc bc 5b 40 0d bc
       -0.04141666 -0.022050861 -0.030816687 -0.008621301
000010 b9 af 32 bd 75 49 97 bc dd 23 8c bc 09 61 40 bd
       -0.043624613 -0.018467644 -0.017106945 -0.04696754
000020 1d 8e ad 3c 0a b0 83 bc 93 53 71 3c db 30 79 3d
       0.021185929 -0.016075153 0.014729398 0.060837608
000030 a1 25 22 bd ae 0c 35 bd fb 65 f4 bc 33 97 ed bc
       -0.039586667 -0.044201545 -0.029833784 -0.029002761
000040 f4 29 18 bd bb 17 aa 3c 0e 3b d2 3c a4 9e b5 3c
       -0.037149385 0.020763269 0.025662925 0.022170372
000050 d6 fa dc bc 0c 73 c8 bc ba fd f9 bc 7c af fe 3c
       -0.026975077 -0.024468921 -0.030516494 0.031089537
000060 84 fb 48 bb a1 b1 1d bd ce cd 2f bd e6 3b 2f bc
       -0.0030667493 -0.03849948 -0.04292088 -0.010695433
000070 3f 84 89 bc 2c 12 fa bc 55 aa 4b 3d 2c b0 49 bc
       -0.016786693 -0.030526243 0.04972299 -0.012310069

sequential/conv2d/Conv2D f4 [32, 3, 3, 3]
000000 63 72 1b be ac b3 00 3d 17 bf 8a bd 27 83 b2 bd
       -0.15180354 0.03142135 -0.06774729 -0.087164216
000010 5a 84 43 bd 2b ff e8 b9 77 0c 42 bd be cf 22 3d
       -0.047733642 -0.00044440603 -0.04737517 0.0397489
000020 48 cd 13 be d6 67 03 bc 2c 31 e6 bc c1 83 f9 bd
       -0.14433777 -0.008020362 -0.028099619 -0.12183333
000030 eb 2c b0 3d c0 07 57 3c 02 7c cc 3d 1e 7d c8 3d
       0.086023174 0.013124406 0.0998459 0.09789489
000040 46 b0 df bd 62 41 8e bd b2 f6 7d 3d e6 fa 6f bd
       -0.10922293 -0.069460645 0.062002845 -0.058588885
000050 e0 e8 b9 bd ec 1e a5 bd fc 54 b4 bc d9 83 27 3d
       -0.090776205 -0.080625385 -0.02201318 0.040897224
000060 1a b2 ab 3d 6a 60 a6 3d b5 f4 52 bd 4b 18 a5 3c
       0.083835796 0.08123858 -0.051502902 0.020153185
000070 fe b3 cb bd da 0a 6f bd e5 ee d8 3c 42 27 c6 3d
       -0.0994644 -0.05835996 0.026481101 0.096754566
000080 6d 5b 60 bd 4e 0a f9 bd 51 30 01 3d 57 27 ed bd
       -0.05477469 -0.121601686 0.03154022 -0.11579769
000090 58 be 53 bc 8f 04 a7 bd 94 74 ee 3c 02 cc 53 3d
       -0.012923799 -0.08155166 0.029108323 0.05170823
0000a0 0c f9 9f 3d 7a f6 bb bc 68 fd 19 bd 95 19 f9 3c
       0.07811174 -0.022944678 -0.037595183 0.030407706
0000b0 5d 8c cb 3c a1 e1 dd 3d 7d 40 37 bd e4 36 de bd
       0.024847204 0.10834051 -0.044739235 -0.10850313
0000c0 17 6b 3d bc 8a 46 ea bb 1d 2c d9 3d 7a 4f 80 bd
       -0.011561177 -0.007149522 0.10604117 -0.06265159
0000d0 66 ff 11 be e3 3b ab bc dc 9d 89 3a c7 3c af 3c
       -0.14257583 -0.02090258 0.0010499316 0.021391286
0000e0 97 fe 0f be 20 00 f0 bb 00 4d 6b bd 5f fb 94 3d
       -0.14061962 -0.0073242337 -0.05744648 0.07274508
0000f0 2d dd f8 3c 76 c5 19 be dd f2 72 3d dd 17 b2 3d
       0.030378902 -0.15016732 0.059313644 0.08695958
000100 30 aa d0 bd 54 82 60 bb 6a 4d b8 3d c7 03 9c bd
       -0.10188711 -0.003425737 0.089991406 -0.07617908
000110 3d 53 c2 bd e9 ec b6 3d 46 5e 24 be f4 16 1e bd
       -0.09488533 0.08931906 -0.16051587 -0.03859611
000120 5a 8e 9b 3d 0d 35 98 3d 32 86 20 bd 75 57 0c 3c
       0.07595511 0.07431994 -0.03919048 0.008565773
000130 2f 98 d5 3c 16 5b 71 bd 4e a1 12 be 41 90 47 3d
       0.026073543 -0.058924757 -0.14319345 0.048721556
000140 21 b8 02 be 44 a7 0d be 92 ce 34 bd 99 6d 8a 3d
       -0.12765552 -0.13833338 -0.044142313 0.06759185
000150 93 36 07 3e b5 de bd bd 7b eb df 3d 40 ed 65 3c
       0.13204412 -0.092709936 0.10933586 0.014033616
000160 61 85 6c 3d b1 5a c2 3d 6a 68 cc bc 03 bc 8c bd
       0.057744388 0.09489954 -0.024952132 -0.06871798
000170 bf 35 35 bd 7e 16 b6 bd ad 0f f5 bb 5f 5e 94 3d
       -0.04424071 -0.08891009 -0.0074786753 0.07244562
000180 0e f2 01 3c ea ae 41 bd 74 73 96 bd c3 27 e2 3d
       0.0079312455 -0.04728595 -0.0734624 0.1104274
000190 42 e9 f7 bd 9d c1 09 be b7 86 2f 3d df 1a 90 bd
       -0.12105037 -0.13452764 0.042853083 -0.07036375
0001a0 17 35 8d bd 28 ff d7 bd d5 fb f9 3d 64 46 d8 bd
       -0.06894892 -0.10546714 0.12206236 -0.10560301
0001b0 fe 33 df bd d2 be 06 bd bb 70 92 bd e5 ed ac 3c
       -0.108985886 -0.032896824 -0.07150408 0.02110953
0001c0 2a 84 0b be 40 fd b2 bd f6 33 87 3d af 02 89 bc
       -0.13624635 -0.0873971 0.06601708 -0.016724912
0001d0 06 94 d5 bc 58 a0 87 3d 8f 61 f3 bd e0 ee c8 3c
       -0.02607156 0.0662238 -0.11883842 0.024527967
0001e0 33 34 b8 3d 55 fd a5 3d 62 a5 73 3d d6 94 e6 bc
       0.08994331 0.0810496 0.059483893 -0.028147142
0001f0 32 cb 91 bc a2 e9 e4 3c d3 c2 f8 bd 16 7b 9f 3b
       -0.017797086 0.027943436 -0.12146535 0.004866968
000200 8f 04 ce bd fe 44 47 bd 2f ea 1b bd b1 da 87 bd
       -0.10059463 -0.04864978 -0.03806513 -0.06633509
000210 ec 92 9d bd 48 0a 41 3d f3 2e 50 bd 28 f1 f2 bc
       -0.07694039 0.047128946 -0.050826024 -0.029656008
000220 61 ac 0d bd 66 ae 68 bb 5c b3 56 3d e5 38 df bd
       -0.03458822 -0.003550434 0.052417144 -0.10899524
000230 5b ea 18 be 51 62 52 3c f5 2e 99 3c 86 01 9b bc
       -0.1493315 0.012840823 0.018699149 -0.018921625
000240 22 45 cf 3d 36 4e 51 3d d2 5b b7 3c b5 9f 0e bc
       0.10120608 0.05109998 0.02238265 -0.008705069
000250 de 4a 1d be 25 74 91 bd 94 d7 00 3d 80 c7 55 bd
       -0.15360591 -0.07102231 0.03145559 -0.05219221
000260 e0 1d 21 bd 1b 9b b5 bd 22 53 db bd 6b e8 af bd
       -0.03933513 -0.08867475 -0.10709216 -0.08589252
000270 6b 78 d8 bc b3 d1 a0 3d 94 8e 4f bd 2b 8e fe bb
       -0.026424607 0.07852497 -0.050673082 -0.0077684126
000280 90 ee 0e 3d f8 2d c0 3c 45 d0 ee 3d a6 28 11 be
       0.03489548 0.02345942 0.11660818 -0.14175662
000290 1d 3d 18 bd 35 36 7b bd ee d3 d0 bd b9 71 a6 bd
       -0.037167657 -0.061330993 -0.101966724 -0.081271596
0002a0 6e 30 85 bc eb 32 dd bd 3c 7b e1 3d 59 64 da bd
       -0.016258445 -0.108007275 0.11009833 -0.10663671
0002b0 a1 5a c1 3c a6 e0 dd bc 68 65 14 3d 99 1f 8f bd
       0.023602786 -0.02708466 0.03622952 -0.06988449
0002c0 2f 94 e5 bd d9 c8 20 3d ba 77 f3 bc d6 2b fe 3d
       -0.112099044 0.039254043 -0.029720176 0.12410705
0002d0 07 31 0b be a5 c7 01 be 6b c3 d8 3d 5e c0 d7 3d
       -0.13592921 -0.12673815 0.10584148 0.10534738
0002e0 09 a6 7c 3d c9 5b fd bd fa e0 01 3d 5c 3d d7 bd
       0.06168178 -0.12371022 0.031708695 -0.1050975
0002f0 1d f9 65 3d 64 24 cc 3c f4 9e 18 bd ff 5f 20 be
       0.056145776 0.024919696 -0.037260965 -0.1566162
000300 40 d1 c5 bd 04 dd bb 3d be 8f 44 bd 5d 78 40 bd
       -0.09659052 0.09173015 -0.047988646 -0.046989787
000310 a2 4c 57 3d 4b f6 36 3d 30 89 8a 3d bd 98 4b 3d
       0.052563317 0.044668477 0.06764448 0.04970621
000320 11 b4 53 3d bb 45 b7 3d d3 c4 6e 3b 9a f2 de bd
       0.051685397 0.08948847 0.0036433234 -0.10886116
000330 2d 25 9c bd ca d1 6e bd 0a ac 8f 3d 06 06 04 be
       -0.07624278 -0.05830554 0.07015236 -0.12892923
000340 c6 7a e4 bb a7 27 c8 3d 2a 67 70 bc 8b 2c 01 bd
       -0.0069726435 0.09773188 -0.014673034 -0.03153662
000350 f8 82 fc bd eb dc 68 3c 9b bd 10 be 08 9e e5 bd
       -0.12329668 0.014212827 -0.14134829 -0.11211783
000360 66 34 ad 3d b0 7a 0a 3e 49 09 2d 3d 11 8c b5 bd
       0.0845726 0.13523364 0.042245183 -0.08864606
000370 81 db 82 3d b1 80 12 bc 7c 70 d8 3c a2 1b a1 bd
       0.06389523 -0.008941815 0.026420824 -0.07866599
000380 cc 75 c3 bd f7 17 01 3e 64 4b a1 bd d9 f6 61 3c
       -0.09543952 0.12606798 -0.07875708 0.013791763
000390 04 ef 69 3d de 09 bc bd ed 2c 66 3c de 98 9c bd
       0.05711271 -0.091815695 0.014048797 -0.076463446
0003a0 fa ec 02 bb ff 87 89 bd e2 9f b3 bd 78 df 56 3d
       -0.0019977675 -0.06715392 -0.087707296 0.05245921
0003b0 aa fc 85 bc 69 41 39 bc a2 69 5b bd b2 7f 18 3c
       -0.016355831 -0.011307099 -0.053567536 0.009307789
0003c0 7a b7 68 bd 10 e8 45 bd d9 65 8e bc 3d 76 eb 3d
       -0.056815602 -0.048317015 -0.01738255 0.114971615
0003d0 79 f7 14 be a8 ee d3 bd 53 71 a9 bc d0 34 d5 bd
       -0.14547528 -0.103482544 -0.02068392 -0.10410464
0003e0 7b 4f 31 3c 6d d7 cc bc 6f b9 92 bb 1f d3 2d bd
       0.010822172 -0.025005067 -0.004477672 -0.04243767
0003f0 99 63 e2 bc eb 22 0c be 2c bf cc bd 7e d7 3b 3d
       -0.027635382 -0.13685195 -0.09997401 0.045859806

sequential/dense/BiasAdd/ReadVariableOp f4 [10]
000000 c4 58 05 be 9a 6d 23 3d 02 4f ad 3c 02 d8 c2 3d
       -0.13022143 0.039899446 0.021155838 0.095138565
000010 8b f7 3d bc 51 ab ae 3d 00 a6 40 3c f7 0d 15 3d
       -0.011594663 0.0852877 0.0117583275 0.03639027
000020 c7 97 d9 bd b2 7f df bc
       -0.10624652 -0.02728257

sequential/dense/MatMul i1 [10, 4032] scale=0.0014509356 zero_point=0
000000 fa e7 f9 09 0c 0e 02 fb f7 f4 f8 e5 f4 f3 ee f1
       -0.008705614 -0.03627339 -0.0101565495 0.01305842 0.017411228 0.020313099 0.0029018712 -0.007254678 -0.01305842 -0.017411228 -0.011607485 -0.03917526 -0.017411228 -0.018862164 -0.02611684 -0.021764034
000010 ef eb f5 f4 05 0d 01 f0 09 07 f6 f9 0a 0c e8 f9
       -0.024665905 -0.030469649 -0.015960291 -0.017411228 0.007254678 0.018862164 0.0014509356 -0.02321497 0.01305842 0.0101565495 -0.014509356 -0.0101565495 0.014509356 0.017411228 -0.034822457 -0.0101565495
000020 f7 f7 e6 f5 0d 13 ec 03 f6 0e f0 f1 f0 f2 0e f4
       -0.01305842 -0.01305842 -0.037724327 -0.015960291 0.018862164 0.027567776 -0.029018711 0.004352807 -0.014509356 0.020313099 -0.02321497 -0.021764034 -0.02321497 -0.020313099 0.020313099 -0.017411228
000030 06 0c 02 0a 02 e5 04 10 0a 05 e8 f7 ec 07 f6 01
       0.008705614 0.017411228 0.0029018712 0.014509356 0.0029018712 -0.03917526 0.0058037424 0.02321497 0.014509356 0.007254678 -0.034822457 -0.01305842 -0.029018711 0.0101565495 -0.014509356 0.0014509356
000040 fe ff f5 f9 12 0a ec 13 f3 f8 15 bc e8 ec e7 14
       -0.0029018712 -0.0014509356 -0.015960291 -0.0101565495 0.02611684 0.014509356 -0.029018711 0.027567776 -0.018862164 -0.011607485 0.030469649 -0.09866362 -0.034822457 -0.029018711 -0.03627339 0.029018711
000050 fa 0a d3 f5 13 04 19 0e f6 f5 16 f5 04 00 e9 02
       -0.008705614 0.014509356 -0.065292105 -0.015960291 0.027567776 0.0058037424 0.03627339 0.020313099 -0.014509356 -0.015960291 0.031920582 -0.015960291 0.0058037424 0.0 -0.03337152 0.0029018712
000060 fe f3 0d 0c fa f2 ea 03 0a 01 13 fa 04 ee 0b ed
       -0.0029018712 -0.018862164 0.018862164 0.017411228 -0.008705614 -0.020313099 -0.031920582 0.004352807 0.014509356 0.0014509356 0.027567776 -0.008705614 0.0058037424 -0.02611684 0.015960291 -0.027567776
000070 05 16 f3 f1 04 f7 e8 f6 05 f7 05 0f eb 18 e5 0d
       0.007254678 0.031920582 -0.018862164 -0.021764034 0.0058037424 -0.01305842 -0.034822457 -0.014509356 0.007254678 -0.01305842 0.007254678 0.021764034 -0.030469649 0.034822457 -0.03917526 0.018862164
000080 05 1b f4 ff 17 ee f6 0a 0c 12 ea 1b 17 17 fe 12
       0.007254678 0.03917526 -0.017411228 -0.0014509356 0.03337152 -0.02611684 -0.014509356 0.014509356 0.017411228 0.02611684 -0.031920582 0.03917526 0.03337152 0.03337152 -0.0029018712 0.02611684
000090 f2 0e f5 0f 0b 1f f6 f7 ee f5 fe 14 f1 ed 0f fd
       -0.020313099 0.020313099 -0.015960291 0.021764034 0.015960291 0.044979002 -0.014509356 -0.01305842 -0.02611684 -0.015960291 -0.0029018712 0.029018711 -0.021764034 -0.027567776 0.021764034 -0.004352807
0000a0 16 ed 06 08 06 e8 05 05 02 0e eb f0 04 fc f1 f1
       0.031920582 -0.027567776 0.008705614 0.011607485 0.008705614 -0.034822457 0.007254678 0.007254678 0.0029018712 0.020313099 -0.030469649 -0.02321497 0.0058037424 -0.0058037424 -0.021764034 -0.021764034
0000b0 f8 f6 da e5 f6 fb fc fa 04 1f 10 11 ea 12 10 12
       -0.011607485 -0.014509356 -0.05513555 -0.03917526 -0.014509356 -0.007254678 -0.0058037424 -0.008705614 0.0058037424 0.044979002 0.02321497 0.024665905 -0.031920582 0.02611684 0.02321497 0.02611684
0000c0 f4 08 09 f8 10 f8 e5 f6 00 f4 fa 1a 03 14 fa ee
       -0.017411228 0.011607485 0.01305842 -0.011607485 0.02321497 -0.011607485 -0.03917526 -0.014509356 0.0 -0.017411228 -0.008705614 0.037724327 0.004352807 0.029018711 -0.008705614 -0.02611684
0000d0 1a ee 05 09 02 f7 1f f9 e6 ea f5 fa ee 11 12 fc
       0.037724327 -0.02611684 0.007254678 0.01305842 0.0029018712 -0.01305842 0.044979002 -0.0101565495 -0.037724327 -0.031920582 -0.015960291 -0.008705614 -0.02611684 0.024665905 0.02611684 -0.0058037424
0000e0 fc 02 08 0f fa f1 07 07 f0 eb 04 01 fb 03 eb f9
       -0.0058037424 0.0029018712 0.011607485 0.021764034 -0.008705614 -0.021764034 0.0101565495 0.0101565495 -0.02321497 -0.030469649 0.0058037424 0.0014509356 -0.007254678 0.004352807 -0.030469649 -0.0101565495
0000f0 07 fd cd f3 12 fc e9 ed ff ee ed 0b 21 07 ea fb
       0.0101565495 -0.004352807 -0.07399771 -0.018862164 0.02611684 -0.0058037424 -0.03337152 -0.027567776 -0.0014509356 -0.02611684 -0.027567776 0.015960291 0.047880877 0.0101565495 -0.031920582 -0.007254678
